hw1/weight.npy (npy, 1432 bytes, 1 tensors)

array f8 [163, 1]
21.5164544768688 0.26098994787134655 -0.4569684802723442 0.9095653328932722 -1.7976515544725984 -0.24739231024522138 0.7503626119131717 -0.8108333798505442
-1.4125683852162492 2.578655470072935 -0.28020988489632287 0.16146080775458976 -0.02013489301849733 -0.031465153808917325 -0.012964105775799028 -0.07756565679050482
-0.046227042438808826 0.20322384994867151 0.341102225374351 0.06165559645124907 -0.04615888460018994 0.0580751029651171 -0.15683922679950552 0.14212329415361163
-0.046090019138666546 -0.17794437781525102 0.07960865587429808 0.3674791815828696 -0.23068780585598936 0.3553767218614564 -0.39037077517035884 0.2708323619425924
0.34448903378062146 -0.5131349426657006 0.24659407831278954 0.14877716981801045 0.02566801603642605 0.19602652715808294 0.3535969972820704 0.2819092583938305
-1.2569293609953733 -0.26077168722157174 -0.3804263096458635 -0.08027645014857791 -0.8790088032853212 -0.5721651415735205 -0.07172746206502002 0.43263847667106176
0.013189166497426335 -2.8886672324232965 -1.1336070379198977 -0.43759242438985185 -0.8540181631604291 -3.544138294472915 0.13093351681641685 0.14160537064756676
-1.1419082529012203 -0.052527309696113994 3.4188242542712928 1.1205493861004374 0.760357453194366 0.48565060004107025 3.7608137590601634 1.8227041878492418
-0.09042183575881471 0.3756137048496642 -0.30340347713194454 -0.25835333723126885 -0.07208256168993563 -0.6689710531938373 -0.24297017671960208 -0.09501853375018028
1.6362185830224538 0.36824909417969987 0.17418779991383618 -1.0278903419625296 1.4487831720307978 0.08667372856316374 -1.3730613845212065 1.162870375206972
0.2413087804953677 0.7524040294200354 -0.7412349859272932 -0.06434795982441069 3.7111857278924747 -4.178995346440309 -0.3318788843329952 7.9072234187433725
-9.158115815893199 0.9342832131926875 15.294036713621066 0.09821273906800838 -0.01653636166911185 -0.11257483820435124 0.0073125888252584086 -0.1259297162545447
0.09211872282535327 0.0327182232244578 -0.08136764557086537 -0.18003250486308178 -0.23281898052208924 0.08664511531098061 0.43470860969023273 -0.6704525007709132
-0.6435880047089654 0.6903931490705852 -1.243174157433274 0.23674421146881616 0.8272297986102245 -0.5228615674423005 0.6576545382207037 -0.1870663593986175
-0.06158896630161839 -0.05948091400835165 0.07632865613922811 -0.11977950808928627 0.2639280393416501 0.27373773133962853 0.32290803608801083 -0.2987181248289199
0.21862361498998875 -0.2480254372796014 -0.0469327161429379 0.24220798674971664 -0.13864915969221928 -0.20630393453845586 -0.08180076907561608 -0.0434989244066666
0.287353459945947 -0.12395187054677917 0.17667070111297767 0.12635186835039824 0.07968926923104593 -0.35151880197709745 0.07106402691729903 0.09120625123111263
-0.19537462884038878 -0.08869087692000917 0.14941191207807725 -0.15138423623409275 -0.09672508662679154 0.013487460118168558 0.022936785732423384 -0.16557903276068672
-0.012746262525711989 -0.21066935886277066 -0.1944648780929566 0.2995060141052199 -0.04863400405335892 -0.14940307850927678 0.06849755460327252 0.09772027193665755
-0.12990775135542487 -0.13103549373952242 -0.09242954407104642 0.2167526021588994 -0.16534590518315206 -0.191864943426761 0.0724257399559102 0.24977441398318487
-0.12135229737409944 -0.3162734852987422 0.22430090402401145
00000000: 3806 505c 3684 3540 a64c ac2e 0fb4 d03f
00000010: 7da4 84b9 f83e ddbf 3c43 cbc1 281b ed3f
00000020: 9303 c146 2ec3 fcbf 897e e41c 8daa cfbf
00000030: e0dc c973 f802 e83f cdd2 1ed8 58f2 e9bf
00000040: 8be0 9d4e e199 f6bf 09eb 7c1e 16a1 0440
00000050: 0552 e970 f5ee d1bf 6e23 726c bfaa c43f
00000060: 5874 17cc 3d9e 94bf 6d54 255d 331c a0bf
00000070: 19ac a1d2 ec8c 8abf 153e 35c7 57db b3bf
00000080: 7154 ee26 12ab a7bf 15fc a536 3d03 ca3f
00000090: 98d7 a46d 9ed4 d53f e039 bf84 5291 af3f
000000a0: a428 8e27 23a2 a7bf 92de e417 05bc ad3f
000000b0: 0eba eaca 4e13 c4bf c6dc 319a 1831 c23f
000000c0: b6c3 be69 1c99 a7bf fa9d 9ca1 e1c6 c6bf
000000d0: ae68 759d 3b61 b43f 49fe b666 c784 d73f
000000e0: 7865 de92 2d87 cdbf aee5 8901 7ebe d63f
000000f0: 5fef 2ab4 d5fb d8bf ca7a 4f42 5155 d13f
00000100: 34c7 7abb 1b0c d63f 7ce3 a5f8 996b e0bf
00000110: 0fcf de0e 6590 cf3f e740 615b 210b c33f
00000120: 12f7 b765 b748 9a3f 166e a5b1 6517 c93f
00000130: 2a94 d24c 55a1 d63f 706e 4f21 cd0a d23f
00000140: 87b7 2df6 611c f4bf 98b8 15bb 7bb0 d0bf
00000150: 8fe2 9d97 e758 d8bf 1bf1 0658 ff8c b4bf
00000160: ac35 e011 d720 ecbf fc05 5f45 2d4f e2bf
00000170: f959 cb1f bb5c b2bf 33c8 124b 59b0 db3f
00000180: 56c0 24f6 eb02 8b3f 7447 e290 fd1b 07c0
00000190: 2f1a 2622 4123 f2bf 43d5 eea7 8301 dcbf
000001a0: 60d9 1ee6 1d54 ebbf 5f19 9a2d 655a 0cc0
000001b0: 9ca0 56f2 6dc2 c03f d543 eff1 1f20 c23f
000001c0: 4ee4 9396 4145 f2bf 3456 950a dce4 aabf
000001d0: 30ef d687 c059 0b40 08ab 6d31 c5ed f13f
000001e0: 3cab 5727 d954 e83f 1763 1d41 e614 df3f
000001f0: f114 2c86 2516 0e40 0884 d1dd cb29 fd3f
00000200: 22ab 6dab e225 b7bf 9d8e 9010 0e0a d83f
00000210: 898f f16a f66a d3bf ea20 8e6f dc88 d0bf
00000220: 0ef7 11b5 0074 b2bf cc05 6efb 3568 e5bf
00000230: fcfe 7491 a519 cfbf ad8c f876 2253 b8bf
00000240: bc05 7389 f32d fa3f cc23 12a6 6491 d73f
00000250: b9fd fe2b c94b c63f 34a7 a924 3d72 f0bf
00000260: f2e0 6d43 372e f73f 3ce6 99dd 3f30 b63f
00000270: 7bb4 de36 0ff8 f5bf e404 70f7 1d9b f23f
00000280: 368d 3bc4 34e3 ce3f 069b 779d b113 e83f
00000290: 09ae e66e 32b8 e7bf 3a9a 029f 1b79 b0bf
000002a0: ea70 9524 82b0 0d40 a763 5c8e 4ab7 10c0
000002b0: 155d 9cee 803d d5bf 22ac 062d ffa0 1f40
000002c0: b97b 648e f450 22c0 12a9 bbe8 a5e5 ed3f
000002d0: cfa6 e9fa 8b96 2e40 6501 5956 7824 b93f
000002e0: f830 4172 e8ee 90bf a2af 7060 b4d1 bcbf
000002f0: 6c43 a81d cef3 7d3f be33 7406 771e c0bf
00000300: b059 e2b5 1795 b73f 9bec 7665 71c0 a03f
00000310: 3eec ad90 82d4 b4bf 814c 4d1c 4e0b c7bf
00000320: df7e 9d29 03cd cdbf 5f6a 9ed0 5f2e b63f
00000330: fa2f 7a0f 44d2 db3f bca3 8acd 5874 e5bf
00000340: 3355 0adf 4598 e4bf ee7f 945f b317 e63f
00000350: 4388 d695 0ae4 f3bf d34f e362 a24d ce3f
00000360: b3d7 69a0 aa78 ea3f d4ff 8f2e 48bb e0bf
00000370: 3a2a b787 810b e53f 8840 e65b caf1 c7bf
00000380: d4aa 1ec8 9688 afbf a0da cd48 4874 aebf
00000390: e798 dd59 468a b33f af75 f9ad dea9 bebf
000003a0: 0411 5e6e 32e4 d03f 703c f242 eb84 d13f
000003b0: 2145 a777 86aa d43f c435 37a0 321e d3bf
000003c0: 41f5 41ce dbfb cb3f 0a93 d82a 4cbf cfbf
000003d0: 8c8a e4a1 9007 a8bf afc3 f5da ab00 cf3f
000003e0: b97b 3f73 41bf c1bf 487c f0d5 2a68 cabf
000003f0: c9a8 f72b e5f0 b4bf 22c2 79b3 7d45 a6bf
00000400: f70e 37c4 ff63 d23f eac4 464e 4fbb bfbf
00000410: 5487 b841 259d c63f 1c3e 2d4b 4c2c c03f
00000420: d981 3015 8466 b43f 4ded 9ab7 487f d6bf
00000430: 2d28 8887 4031 b23f ab77 3afa 4a59 b73f
00000440: bf36 ab2c 0902 c9bf 3d33 d3ff 71b4 b6bf
00000450: b00b 01f6 ed1f c33f daaf e003 8f60 c3bf
00000460: 55cc c3ab f9c2 b8bf 2cbb e840 509f 8b3f
00000470: b76c 62a2 bd7c 973f 9f23 4e99 b131 c5bf
00000480: 84a5 8d65 b61a 8abf 9add 4aab 36f7 cabf
00000490: c29f d0a1 39e4 c8bf 0b62 e245 1b2b d33f
000004a0: 4ef2 c361 8ee6 a8bf 7f3d 0fdc a31f c3bf
000004b0: 0585 e044 0e89 b13f a8c9 1f1c 3204 b93f
000004c0: f4c2 c833 d1a0 c0bf b1fc 1c64 c5c5 c0bf
000004d0: 5826 f86c 76a9 b7bf 2635 cc9c 8cbe cb3f
000004e0: 0803 a5fb 0d2a c5bf 7127 a2cc 078f c8bf
000004f0: dacd 7f48 7e8a b23f 5bb9 b7a5 9bf8 cf3f
00000500: 3e27 84b4 f110 bfbf 5ecd fc24 d33d d4bf
00000510: db88 9f5b e4b5 cc3f
